<?xml version="1.0" ?>
<net batch="1" name="imagenet-resnet-50-128" version="5">
	<layers>
		<layer id="0" name="data" precision="FP32" type="Input">
			<output>
				<port id="0">
					<dim>1</dim>
					<dim>3</dim>
					<dim>224</dim>
					<dim>224</dim>
				</port>
			</output>
		</layer>
		<layer id="1" name="conv1" precision="FP32" type="Convolution">
			<data dilations="1,1" group="1" kernel="7,7" output="64" pads_begin="3,3" pads_end="3,3" strides="2,2"/>
			<input>
				<port id="0">
					<dim>1</dim>
					<dim>3</dim>
					<dim>224</dim>
					<dim>224</dim>
				</port>
			</input>
			<output>
				<port id="3">
					<dim>1</dim>
					<dim>64</dim>
					<dim>112</dim>
					<dim>112</dim>
				</port>
			</output>
			<blobs>
				<weights offset="0" size="37632"/>
				<biases offset="37632" size="256"/>
			</blobs>
		</layer>
		<layer id="2" name="conv1_relu" precision="FP32" type="ReLU">
			<data negative_slope="0.0"/>
			<input>
				<port id="0">
					<dim>1</dim>
					<dim>64</dim>
					<dim>112</dim>
					<dim>112</dim>
				</port>
			</input>
			<output>
				<port id="1">
					<dim>1</dim>
					<dim>64</dim>
					<dim>112</dim>
					<dim>112</dim>
				</port>
			</output>
		</layer>
		<layer id="3" name="pool1" precision="FP32" type="Pooling">
			<data exclude-pad="true" kernel="3,3" pads_begin="0,0" pads_end="0,0" pool-method="max" rounding_type="ceil" strides="2,2"/>
			<input>
				<port id="0">
					<dim>1</dim>
					<dim>64</dim>
					<dim>112</dim>
					<dim>112</dim>
				</port>
			</input>
			<output>
				<port id="1">
					<dim>1</dim>
					<dim>64</dim>
					<dim>56</dim>
					<dim>56</dim>
				</port>
			</output>
		</layer>
		<layer id="4" name="res2a_branch2a" precision="FP32" type="Convolution">
			<data dilations="1,1" group="1" kernel="1,1" output="64" pads_begin="0,0" pads_end="0,0" strides="1,1"/>
			<input>
				<port id="0">
					<dim>1</dim>
					<dim>64</dim>
					<dim>56</dim>
					<dim>56</dim>
				</port>
			</input>
			<output>
				<port id="3">
					<dim>1</dim>
					<dim>64</dim>
					<dim>56</dim>
					<dim>56</dim>
				</port>
			</output>
			<blobs>
				<weights offset="37888" size="16384"/>
				<biases offset="54272" size="256"/>
			</blobs>
		</layer>
		<layer id="5" name="res2a_branch2a_relu" precision="FP32" type="ReLU">
			<data negative_slope="0.0"/>
			<input>
				<port id="0">
					<dim>1</dim>
					<dim>64</dim>
					<dim>56</dim>
					<dim>56</dim>
				</port>
			</input>
			<output>
				<port id="1">
					<dim>1</dim>
					<dim>64</dim>
					<dim>56</dim>
					<dim>56</dim>
				</port>
			</output>
		</layer>
		<layer id="6" name="res2a_branch2b" precision="FP32" type="Convolution">
			<data dilations="1,1" group="1" kernel="3,3" output="64" pads_begin="1,1" pads_end="1,1" strides="1,1"/>
			<input>
				<port id="0">
					<dim>1</dim>
					<dim>64</dim>
					<dim>56</dim>
					<dim>56</dim>
				</port>
			</input>
			<output>
				<port id="3">
					<dim>1</dim>
					<dim>64</dim>
					<dim>56</dim>
					<dim>56</dim>
				</port>
			</output>
			<blobs>
				<weights offset="54528" size="147456"/>
				<biases offset="201984" size="256"/>
			</blobs>
		</layer>
		<layer id="7" name="res2a_branch2b_relu" precision="FP32" type="ReLU">
			<data negative_slope="0.0"/>
			<input>
				<port id="0">
					<dim>1</dim>
					<dim>64</dim>
					<dim>56</dim>
					<dim>56</dim>
				</port>
			</input>
			<output>
				<port id="1">
					<dim>1</dim>
					<dim>64</dim>
					<dim>56</dim>
					<dim>56</dim>
				</port>
			</output>
		</layer>
		<layer id="8" name="res2a_branch2c" precision="FP32" type="Convolution">
			<data dilations="1,1" group="1" kernel="1,1" output="256" pads_begin="0,0" pads_end="0,0" strides="1,1"/>
			<input>
				<port id="0">
					<dim>1</dim>
					<dim>64</dim>
					<dim>56</dim>
					<dim>56</dim>
				</port>
			</input>
			<output>
				<port id="3">
					<dim>1</dim>
					<dim>256</dim>
					<dim>56</dim>
					<dim>56</dim>
				</port>
			</output>
			<blobs>
				<weights offset="202240" size="65536"/>
				<biases offset="267776" size="1024"/>
			</blobs>
		</layer>
		<layer id="9" name="res2a_branch1" precision="FP32" type="Convolution">
			<data dilations="1,1" group="1" kernel="1,1" output="256" pads_begin="0,0" pads_end="0,0" strides="1,1"/>
			<input>
				<port id="0">
					<dim>1</dim>
					<dim>64</dim>
					<dim>56</dim>
					<dim>56</dim>
				</port>
			</input>
			<output>
				<port id="3">
					<dim>1</dim>
					<dim>256</dim>
					<dim>56</dim>
					<dim>56</dim>
				</port>
			</output>
			<blobs>
				<weights offset="268800" size="65536"/>
				<biases offset="334336" size="1024"/>
			</blobs>
		</layer>
		<layer id="10" name="res2a" precision="FP32" type="Eltwise">
			<data coeff="" operation="sum"/>
			<input>
				<port id="0">
					<dim>1</dim>
					<dim>256</dim>
					<dim>56</dim>
					<dim>56</dim>
				</port>
				<port id="1">
					<dim>1</dim>
					<dim>256</dim>
					<dim>56</dim>
					<dim>56</dim>
				</port>
			</input>
			<output>
				<port id="2">
					<dim>1</dim>
					<dim>256</dim>
					<dim>56</dim>
					<dim>56</dim>
				</port>
			</output>
		</layer>
		<layer id="11" name="res2a_relu" precision="FP32" type="ReLU">
			<data negative_slope="0.0"/>
			<input>
				<port id="0">
					<dim>1</dim>
					<dim>256</dim>
					<dim>56</dim>
					<dim>56</dim>
				</port>
			</input>
			<output>
				<port id="1">
					<dim>1</dim>
					<dim>256</dim>
					<dim>56</dim>
					<dim>56</dim>
				</port>
			</output>
		</layer>
		<layer id="12" name="res2b_branch2a" precision="FP32" type="Convolution">
			<data dilations="1,1" group="1" kernel="1,1" output="64" pads_begin="0,0" pads_end="0,0" strides="1,1"/>
			<input>
				<port id="0">
					<dim>1</dim>
					<dim>256</dim>
					<dim>56</dim>
					<dim>56</dim>
				</port>
			</input>
			<output>
				<port id="3">
					<dim>1</dim>
					<dim>64</dim>
					<dim>56</dim>
					<dim>56</dim>
				</port>
			</output>
			<blobs>
				<weights offset="335360" size="65536"/>
				<biases offset="400896" size="256"/>
			</blobs>
		</layer>
		<layer id="13" name="res2b_branch2a_relu" precision="FP32" type="ReLU">
			<data negative_slope="0.0"/>
			<input>
				<port id="0">
					<dim>1</dim>
					<dim>64</dim>
					<dim>56</dim>
					<dim>56</dim>
				</port>
			</input>
			<output>
				<port id="1">
					<dim>1</dim>
					<dim>64</dim>
					<dim>56</dim>
					<dim>56</dim>
				</port>
			</output>
		</layer>
		<layer id="14" name="res2b_branch2b" precision="FP32" type="Convolution">
			<data dilations="1,1" group="1" kernel="3,3" output="64" pads_begin="1,1" pads_end="1,1" strides="1,1"/>
			<input>
				<port id="0">
					<dim>1</dim>
					<dim>64</dim>
					<dim>56</dim>
					<dim>56</dim>
				</port>
			</input>
			<output>
				<port id="3">
					<dim>1</dim>
					<dim>64</dim>
					<dim>56</dim>
					<dim>56</dim>
				</port>
			</output>
			<blobs>
				<weights offset="401152" size="147456"/>
				<biases offset="548608" size="256"/>
			</blobs>
		</layer>
		<layer id="15" name="res2b_branch2b_relu" precision="FP32" type="ReLU">
			<data negative_slope="0.0"/>
			<input>
				<port id="0">
					<dim>1</dim>
					<dim>64</dim>
					<dim>56</dim>
					<dim>56</dim>
				</port>
			</input>
			<output>
				<port id="1">
					<dim>1</dim>
					<dim>64</dim>
					<dim>56</dim>
					<dim>56</dim>
				</port>
			</output>
		</layer>
		<layer id="16" name="res2b_branch2c" precision="FP32" type="Convolution">
			<data dilations="1,1" group="1" kernel="1,1" output="256" pads_begin="0,0" pads_end="0,0" strides="1,1"/>
			<input>
				<port id="0">
					<dim>1</dim>
					<dim>64</dim>
					<dim>56</dim>
					<dim>56</dim>
				</port>
			</input>
			<output>
				<port id="3">
					<dim>1</dim>
					<dim>256</dim>
					<dim>56</dim>
					<dim>56</dim>
				</port>
			</output>
			<blobs>
				<weights offset="548864" size="65536"/>
				<biases offset="614400" size="1024"/>
			</blobs>
		</layer>
		<layer id="17" name="res2b" precision="FP32" type="Eltwise">
			<data coeff="" operation="sum"/>
			<input>
				<port id="0">
					<dim>1</dim>
					<dim>256</dim>
					<dim>56</dim>
					<dim>56</dim>
				</port>
				<port id="1">
					<dim>1</dim>
					<dim>256</dim>
					<dim>56</dim>
					<dim>56</dim>
				</port>
			</input>
			<output>
				<port id="2">
					<dim>1</dim>
					<dim>256</dim>
					<dim>56</dim>
					<dim>56</dim>
				</port>
			</output>
		</layer>
		<layer id="18" name="res2b_relu" precision="FP32" type="ReLU">
			<data negative_slope="0.0"/>
			<input>
				<port id="0">
					<dim>1</dim>
					<dim>256</dim>
					<dim>56</dim>
					<dim>56</dim>
				</port>
			</input>
			<output>
				<port id="1">
					<dim>1</dim>
					<dim>256</dim>
					<dim>56</dim>
					<dim>56</dim>
				</port>
			</output>
		</layer>
		<layer id="19" name="res2c_branch2a" precision="FP32" type="Convolution">
			<data dilations="1,1" group="1" kernel="1,1" output="64" pads_begin="0,0" pads_end="0,0" strides="1,1"/>
			<input>
				<port id="0">
					<dim>1</dim>
					<dim>256</dim>
					<dim>56</dim>
					<dim>56</dim>
				</port>
			</input>
			<output>
				<port id="3">
					<dim>1</dim>
					<dim>64</dim>
					<dim>56</dim>
					<dim>56</dim>
				</port>
			</output>
			<blobs>
				<weights offset="615424" size="65536"/>
				<biases offset="680960" size="256"/>
			</blobs>
		</layer>
		<layer id="20" name="res2c_branch2a_relu" precision="FP32" type="ReLU">
			<data negative_slope="0.0"/>
			<input>
				<port id="0">
					<dim>1</dim>
					<dim>64</dim>
					<dim>56</dim>
					<dim>56</dim>
				</port>
			</input>
			<output>
				<port id="1">
					<dim>1</dim>
					<dim>64</dim>
					<dim>56</dim>
					<dim>56</dim>
				</port>
			</output>
		</layer>
		<layer id="21" name="res2c_branch2b" precision="FP32" type="Convolution">
			<data dilations="1,1" group="1" kernel="3,3" output="64" pads_begin="1,1" pads_end="1,1" strides="2,2"/>
			<input>
				<port id="0">
					<dim>1</dim>
					<dim>64</dim>
					<dim>56</dim>
					<dim>56</dim>
				</port>
			</input>
			<output>
				<port id="3">
					<dim>1</dim>
					<dim>64</dim>
					<dim>28</dim>
					<dim>28</dim>
				</port>
			</output>
			<blobs>
				<weights offset="681216" size="147456"/>
				<biases offset="828672" size="256"/>
			</blobs>
		</layer>
		<layer id="22" name="res2c_branch2b_relu" precision="FP32" type="ReLU">
			<data negative_slope="0.0"/>
			<input>
				<port id="0">
					<dim>1</dim>
					<dim>64</dim>
					<dim>28</dim>
					<dim>28</dim>
				</port>
			</input>
			<output>
				<port id="1">
					<dim>1</dim>
					<dim>64</dim>
					<dim>28</dim>
					<dim>28</dim>
				</port>
			</output>
		</layer>
		<layer id="23" name="res2c_branch2c" precision="FP32" type="Convolution">
			<data dilations="1,1" group="1" kernel="1,1" output="256" pads_begin="0,0" pads_end="0,0" strides="1,1"/>
			<input>
				<port id="0">
					<dim>1</dim>
					<dim>64</dim>
					<dim>28</dim>
					<dim>28</dim>
				</port>
			</input>
			<output>
				<port id="3">
					<dim>1</dim>
					<dim>256</dim>
					<dim>28</dim>
					<dim>28</dim>
				</port>
			</output>
			<blobs>
				<weights offset="828928" size="65536"/>
				<biases offset="894464" size="1024"/>
			</blobs>
		</layer>
		<layer id="24" name="Pooling_6664" precision="FP32" type="Pooling">
			<data kernel="1,1" pads_begin="0,0" pads_end="0,0" pool-method="max" strides="2,2"/>
			<input>
				<port id="0">
					<dim>1</dim>
					<dim>256</dim>
					<dim>56</dim>
					<dim>56</dim>
				</port>
			</input>
			<output>
				<port id="1">
					<dim>1</dim>
					<dim>256</dim>
					<dim>28</dim>
					<dim>28</dim>
				</port>
			</output>
		</layer>
		<layer id="25" name="res2c" precision="FP32" type="Eltwise">
			<data coeff="" operation="sum"/>
			<input>
				<port id="0">
					<dim>1</dim>
					<dim>256</dim>
					<dim>28</dim>
					<dim>28</dim>
				</port>
				<port id="1">
					<dim>1</dim>
					<dim>256</dim>
					<dim>28</dim>
					<dim>28</dim>
				</port>
			</input>
			<output>
				<port id="2">
					<dim>1</dim>
					<dim>256</dim>
					<dim>28</dim>
					<dim>28</dim>
				</port>
			</output>
		</layer>
		<layer id="26" name="res2c_relu" precision="FP32" type="ReLU">
			<data negative_slope="0.0"/>
			<input>
				<port id="0">
					<dim>1</dim>
					<dim>256</dim>
					<dim>28</dim>
					<dim>28</dim>
				</port>
			</input>
			<output>
				<port id="1">
					<dim>1</dim>
					<dim>256</dim>
					<dim>28</dim>
					<dim>28</dim>
				</port>
			</output>
		</layer>
		<layer id="27" name="res3a_branch2a" precision="FP32" type="Convolution">
			<data dilations="1,1" group="1" kernel="1,1" output="128" pads_begin="0,0" pads_end="0,0" strides="1,1"/>
			<input>
				<port id="0">
					<dim>1</dim>
					<dim>256</dim>
					<dim>28</dim>
					<dim>28</dim>
				</port>
			</input>
			<output>
				<port id="3">
					<dim>1</dim>
					<dim>128</dim>
					<dim>28</dim>
					<dim>28</dim>
				</port>
			</output>
			<blobs>
				<weights offset="895488" size="131072"/>
				<biases offset="1026560" size="512"/>
			</blobs>
		</layer>
		<layer id="28" name="res3a_branch2a_relu" precision="FP32" type="ReLU">
			<data negative_slope="0.0"/>
			<input>
				<port id="0">
					<dim>1</dim>
					<dim>128</dim>
					<dim>28</dim>
					<dim>28</dim>
				</port>
			</input>
			<output>
				<port id="1">
					<dim>1</dim>
					<dim>128</dim>
					<dim>28</dim>
					<dim>28</dim>
				</port>
			</output>
		</layer>
		<layer id="29" name="res3a_branch2b" precision="FP32" type="Convolution">
			<data dilations="1,1" group="1" kernel="3,3" output="128" pads_begin="1,1" pads_end="1,1" strides="1,1"/>
			<input>
				<port id="0">
					<dim>1</dim>
					<dim>128</dim>
					<dim>28</dim>
					<dim>28</dim>
				</port>
			</input>
			<output>
				<port id="3">
					<dim>1</dim>
					<dim>128</dim>
					<dim>28</dim>
					<dim>28</dim>
				</port>
			</output>
			<blobs>
				<weights offset="1027072" size="589824"/>
				<biases offset="1616896" size="512"/>
			</blobs>
		</layer>
		<layer id="30" name="res3a_branch2b_relu" precision="FP32" type="ReLU">
			<data negative_slope="0.0"/>
			<input>
				<port id="0">
					<dim>1</dim>
					<dim>128</dim>
					<dim>28</dim>
					<dim>28</dim>
				</port>
			</input>
			<output>
				<port id="1">
					<dim>1</dim>
					<dim>128</dim>
					<dim>28</dim>
					<dim>28</dim>
				</port>
			</output>
		</layer>
		<layer id="31" name="res3a_branch2c" precision="FP32" type="Convolution">
			<data dilations="1,1" group="1" kernel="1,1" output="512" pads_begin="0,0" pads_end="0,0" strides="1,1"/>
			<input>
				<port id="0">
					<dim>1</dim>
					<dim>128</dim>
					<dim>28</dim>
					<dim>28</dim>
				</port>
			</input>
			<output>
				<port id="3">
					<dim>1</dim>
					<dim>512</dim>
					<dim>28</dim>
					<dim>28</dim>
				</port>
			</output>
			<blobs>
				<weights offset="1617408" size="262144"/>
				<biases offset="1879552" size="2048"/>
			</blobs>
		</layer>
		<layer id="32" name="res3a_branch1" precision="FP32" type="Convolution">
			<data dilations="1,1" group="1" kernel="1,1" output="512" pads_begin="0,0" pads_end="0,0" strides="1,1"/>
			<input>
				<port id="0">
					<dim>1</dim>
					<dim>256</dim>
					<dim>28</dim>
					<dim>28</dim>
				</port>
			</input>
			<output>
				<port id="3">
					<dim>1</dim>
					<dim>512</dim>
					<dim>28</dim>
					<dim>28</dim>
				</port>
			</output>
			<blobs>
				<weights offset="1881600" size="524288"/>
				<biases offset="2405888" size="2048"/>
			</blobs>
		</layer>
		<layer id="33" name="res3a" precision="FP32" type="Eltwise">
			<data coeff="" operation="sum"/>
			<input>
				<port id="0">
					<dim>1</dim>
					<dim>512</dim>
					<dim>28</dim>
					<dim>28</dim>
				</port>
				<port id="1">
					<dim>1</dim>
					<dim>512</dim>
					<dim>28</dim>
					<dim>28</dim>
				</port>
			</input>
			<output>
				<port id="2">
					<dim>1</dim>
					<dim>512</dim>
					<dim>28</dim>
					<dim>28</dim>
				</port>
			</output>
		</layer>
		<layer id="34" name="res3a_relu" precision="FP32" type="ReLU">
			<data negative_slope="0.0"/>
			<input>
				<port id="0">
					<dim>1</dim>
					<dim>512</dim>
					<dim>28</dim>
					<dim>28</dim>
				</port>
			</input>
			<output>
				<port id="1">
					<dim>1</dim>
					<dim>512</dim>
					<dim>28</dim>
					<dim>28</dim>
				</port>
			</output>
		</layer>
		<layer id="35" name="res3b_branch2a" precision="FP32" type="Convolution">
			<data dilations="1,1" group="1" kernel="1,1" output="128" pads_begin="0,0" pads_end="0,0" strides="1,1"/>
			<input>
				<port id="0">
					<dim>1</dim>
					<dim>512</dim>
					<dim>28</dim>
					<dim>28</dim>
				</port>
			</input>
			<output>
				<port id="3">
					<dim>1</dim>
					<dim>128</dim>
					<dim>28</dim>
					<dim>28</dim>
				</port>
			</output>
			<blobs>
				<weights offset="2407936" size="262144"/>
				<biases offset="2670080" size="512"/>
			</blobs>
		</layer>
		<layer id="36" name="res3b_branch2a_relu" precision="FP32" type="ReLU">
			<data negative_slope="0.0"/>
			<input>
				<port id="0">
					<dim>1</dim>
					<dim>128</dim>
					<dim>28</dim>
					<dim>28</dim>
				</port>
			</input>
			<output>
				<port id="1">
					<dim>1</dim>
					<dim>128</dim>
					<dim>28</dim>
					<dim>28</dim>
				</port>
			</output>
		</layer>
		<layer id="37" name="res3b_branch2b" precision="FP32" type="Convolution">
			<data dilations="1,1" group="1" kernel="3,3" output="128" pads_begin="1,1" pads_end="1,1" strides="1,1"/>
			<input>
				<port id="0">
					<dim>1</dim>
					<dim>128</dim>
					<dim>28</dim>
					<dim>28</dim>
				</port>
			</input>
			<output>
				<port id="3">
					<dim>1</dim>
					<dim>128</dim>
					<dim>28</dim>
					<dim>28</dim>
				</port>
			</output>
			<blobs>
				<weights offset="2670592" size="589824"/>
				<biases offset="3260416" size="512"/>
			</blobs>
		</layer>
		<layer id="38" name="res3b_branch2b_relu" precision="FP32" type="ReLU">
			<data negative_slope="0.0"/>
			<input>
				<port id="0">
					<dim>1</dim>
					<dim>128</dim>
					<dim>28</dim>
					<dim>28</dim>
				</port>
			</input>
			<output>
				<port id="1">
					<dim>1</dim>
					<dim>128</dim>
					<dim>28</dim>
					<dim>28</dim>
				</port>
			</output>
		</layer>
		<layer id="39" name="res3b_branch2c" precision="FP32" type="Convolution">
			<data dilations="1,1" group="1" kernel="1,1" output="512" pads_begin="0,0" pads_end="0,0" strides="1,1"/>
			<input>
				<port id="0">
					<dim>1</dim>
					<dim>128</dim>
					<dim>28</dim>
					<dim>28</dim>
				</port>
			</input>
			<output>
				<port id="3">
					<dim>1</dim>
					<dim>512</dim>
					<dim>28</dim>
					<dim>28</dim>
				</port>
			</output>
			<blobs>
				<weights offset="3260928" size="262144"/>
				<biases offset="3523072" size="2048"/>
			</blobs>
		</layer>
		<layer id="40" name="res3b" precision="FP32" type="Eltwise">
			<data coeff="" operation="sum"/>
			<input>
				<port id="0">
					<dim>1</dim>
					<dim>512</dim>
					<dim>28</dim>
					<dim>28</dim>
				</port>
				<port id="1">
					<dim>1</dim>
					<dim>512</dim>
					<dim>28</dim>
					<dim>28</dim>
				</port>
			</input>
			<output>
				<port id="2">
					<dim>1</dim>
					<dim>512</dim>
					<dim>28</dim>
					<dim>28</dim>
				</port>
			</output>
		</layer>
		<layer id="41" name="res3b_relu" precision="FP32" type="ReLU">
			<data negative_slope="0.0"/>
			<input>
				<port id="0">
					<dim>1</dim>
					<dim>512</dim>
					<dim>28</dim>
					<dim>28</dim>
				</port>
			</input>
			<output>
				<port id="1">
					<dim>1</dim>
					<dim>512</dim>
					<dim>28</dim>
					<dim>28</dim>
				</port>
			</output>
		</layer>
		<layer id="42" name="res3c_branch2a" precision="FP32" type="Convolution">
			<data dilations="1,1" group="1" kernel="1,1" output="128" pads_begin="0,0" pads_end="0,0" strides="1,1"/>
			<input>
				<port id="0">
					<dim>1</dim>
					<dim>512</dim>
					<dim>28</dim>
					<dim>28</dim>
				</port>
			</input>
			<output>
				<port id="3">
					<dim>1</dim>
					<dim>128</dim>
					<dim>28</dim>
					<dim>28</dim>
				</port>
			</output>
			<blobs>
				<weights offset="3525120" size="262144"/>
				<biases offset="3787264" size="512"/>
			</blobs>
		</layer>
		<layer id="43" name="res3c_branch2a_relu" precision="FP32" type="ReLU">
			<data negative_slope="0.0"/>
			<input>
				<port id="0">
					<dim>1</dim>
					<dim>128</dim>
					<dim>28</dim>
					<dim>28</dim>
				</port>
			</input>
			<output>
				<port id="1">
					<dim>1</dim>
					<dim>128</dim>
					<dim>28</dim>
					<dim>28</dim>
				</port>
			</output>
		</layer>
		<layer id="44" name="res3c_branch2b" precision="FP32" type="Convolution">
			<data dilations="1,1" group="1" kernel="3,3" output="128" pads_begin="1,1" pads_end="1,1" strides="1,1"/>
			<input>
				<port id="0">
					<dim>1</dim>
					<dim>128</dim>
					<dim>28</dim>
					<dim>28</dim>
				</port>
			</input>
			<output>
				<port id="3">
					<dim>1</dim>
					<dim>128</dim>
					<dim>28</dim>
					<dim>28</dim>
				</port>
			</output>
			<blobs>
				<weights offset="3787776" size="589824"/>
				<biases offset="4377600" size="512"/>
			</blobs>
		</layer>
		<layer id="45" name="res3c_branch2b_relu" precision="FP32" type="ReLU">
			<data negative_slope="0.0"/>
			<input>
				<port id="0">
					<dim>1</dim>
					<dim>128</dim>
					<dim>28</dim>
					<dim>28</dim>
				</port>
			</input>
			<output>
				<port id="1">
					<dim>1</dim>
					<dim>128</dim>
					<dim>28</dim>
					<dim>28</dim>
				</port>
			</output>
		</layer>
		<layer id="46" name="res3c_branch2c" precision="FP32" type="Convolution">
			<data dilations="1,1" group="1" kernel="1,1" output="512" pads_begin="0,0" pads_end="0,0" strides="1,1"/>
			<input>
				<port id="0">
					<dim>1</dim>
					<dim>128</dim>
					<dim>28</dim>
					<dim>28</dim>
				</port>
			</input>
			<output>
				<port id="3">
					<dim>1</dim>
					<dim>512</dim>
					<dim>28</dim>
					<dim>28</dim>
				</port>
			</output>
			<blobs>
				<weights offset="4378112" size="262144"/>
				<biases offset="4640256" size="2048"/>
			</blobs>
		</layer>
		<layer id="47" name="res3c" precision="FP32" type="Eltwise">
			<data coeff="" operation="sum"/>
			<input>
				<port id="0">
					<dim>1</dim>
					<dim>512</dim>
					<dim>28</dim>
					<dim>28</dim>
				</port>
				<port id="1">
					<dim>1</dim>
					<dim>512</dim>
					<dim>28</dim>
					<dim>28</dim>
				</port>
			</input>
			<output>
				<port id="2">
					<dim>1</dim>
					<dim>512</dim>
					<dim>28</dim>
					<dim>28</dim>
				</port>
			</output>
		</layer>
		<layer id="48" name="res3c_relu" precision="FP32" type="ReLU">
			<data negative_slope="0.0"/>
			<input>
				<port id="0">
					<dim>1</dim>
					<dim>512</dim>
					<dim>28</dim>
					<dim>28</dim>
				</port>
			</input>
			<output>
				<port id="1">
					<dim>1</dim>
					<dim>512</dim>
					<dim>28</dim>
					<dim>28</dim>
				</port>
			</output>
		</layer>
		<layer id="49" name="res3d_branch2a" precision="FP32" type="Convolution">
			<data dilations="1,1" group="1" kernel="1,1" output="128" pads_begin="0,0" pads_end="0,0" strides="1,1"/>
			<input>
				<port id="0">
					<dim>1</dim>
					<dim>512</dim>
					<dim>28</dim>
					<dim>28</dim>
				</port>
			</input>
			<output>
				<port id="3">
					<dim>1</dim>
					<dim>128</dim>
					<dim>28</dim>
					<dim>28</dim>
				</port>
			</output>
			<blobs>
				<weights offset="4642304" size="262144"/>
				<biases offset="4904448" size="512"/>
			</blobs>
		</layer>
		<layer id="50" name="res3d_branch2a_relu" precision="FP32" type="ReLU">
			<data negative_slope="0.0"/>
			<input>
				<port id="0">
					<dim>1</dim>
					<dim>128</dim>
					<dim>28</dim>
					<dim>28</dim>
				</port>
			</input>
			<output>
				<port id="1">
					<dim>1</dim>
					<dim>128</dim>
					<dim>28</dim>
					<dim>28</dim>
				</port>
			</output>
		</layer>
		<layer id="51" name="res3d_branch2b" precision="FP32" type="Convolution">
			<data dilations="1,1" group="1" kernel="3,3" output="128" pads_begin="1,1" pads_end="1,1" strides="2,2"/>
			<input>
				<port id="0">
					<dim>1</dim>
					<dim>128</dim>
					<dim>28</dim>
					<dim>28</dim>
				</port>
			</input>
			<output>
				<port id="3">
					<dim>1</dim>
					<dim>128</dim>
					<dim>14</dim>
					<dim>14</dim>
				</port>
			</output>
			<blobs>
				<weights offset="4904960" size="589824"/>
				<biases offset="5494784" size="512"/>
			</blobs>
		</layer>
		<layer id="52" name="res3d_branch2b_relu" precision="FP32" type="ReLU">
			<data negative_slope="0.0"/>
			<input>
				<port id="0">
					<dim>1</dim>
					<dim>128</dim>
					<dim>14</dim>
					<dim>14</dim>
				</port>
			</input>
			<output>
				<port id="1">
					<dim>1</dim>
					<dim>128</dim>
					<dim>14</dim>
					<dim>14</dim>
				</port>
			</output>
		</layer>
		<layer id="53" name="res3d_branch2c" precision="FP32" type="Convolution">
			<data dilations="1,1" group="1" kernel="1,1" output="512" pads_begin="0,0" pads_end="0,0" strides="1,1"/>
			<input>
				<port id="0">
					<dim>1</dim>
					<dim>128</dim>
					<dim>14</dim>
					<dim>14</dim>
				</port>
			</input>
			<output>
				<port id="3">
					<dim>1</dim>
					<dim>512</dim>
					<dim>14</dim>
					<dim>14</dim>
				</port>
			</output>
			<blobs>
				<weights offset="5495296" size="262144"/>
				<biases offset="5757440" size="2048"/>
			</blobs>
		</layer>
		<layer id="54" name="Pooling_6662" precision="FP32" type="Pooling">
			<data kernel="1,1" pads_begin="0,0" pads_end="0,0" pool-method="max" strides="2,2"/>
			<input>
				<port id="0">
					<dim>1</dim>
					<dim>512</dim>
					<dim>28</dim>
					<dim>28</dim>
				</port>
			</input>
			<output>
				<port id="1">
					<dim>1</dim>
					<dim>512</dim>
					<dim>14</dim>
					<dim>14</dim>
				</port>
			</output>
		</layer>
		<layer id="55" name="res3d" precision="FP32" type="Eltwise">
			<data coeff="" operation="sum"/>
			<input>
				<port id="0">
					<dim>1</dim>
					<dim>512</dim>
					<dim>14</dim>
					<dim>14</dim>
				</port>
				<port id="1">
					<dim>1</dim>
					<dim>512</dim>
					<dim>14</dim>
					<dim>14</dim>
				</port>
			</input>
			<output>
				<port id="2">
					<dim>1</dim>
					<dim>512</dim>
					<dim>14</dim>
					<dim>14</dim>
				</port>
			</output>
		</layer>
		<layer id="56" name="res3d_relu" precision="FP32" type="ReLU">
			<data negative_slope="0.0"/>
			<input>
				<port id="0">
					<dim>1</dim>
					<dim>512</dim>
					<dim>14</dim>
					<dim>14</dim>
				</port>
			</input>
			<output>
				<port id="1">
					<dim>1</dim>
					<dim>512</dim>
					<dim>14</dim>
					<dim>14</dim>
				</port>
			</output>
		</layer>
		<layer id="57" name="res4a_branch2a" precision="FP32" type="Convolution">
			<data dilations="1,1" group="1" kernel="1,1" output="256" pads_begin="0,0" pads_end="0,0" strides="1,1"/>
			<input>
				<port id="0">
					<dim>1</dim>
					<dim>512</dim>
					<dim>14</dim>
					<dim>14</dim>
				</port>
			</input>
			<output>
				<port id="3">
					<dim>1</dim>
					<dim>256</dim>
					<dim>14</dim>
					<dim>14</dim>
				</port>
			</output>
			<blobs>
				<weights offset="5759488" size="524288"/>
				<biases offset="6283776" size="1024"/>
			</blobs>
		</layer>
		<layer id="58" name="res4a_branch2a_relu" precision="FP32" type="ReLU">
			<data negative_slope="0.0"/>
			<input>
				<port id="0">
					<dim>1</dim>
					<dim>256</dim>
					<dim>14</dim>
					<dim>14</dim>
				</port>
			</input>
			<output>
				<port id="1">
					<dim>1</dim>
					<dim>256</dim>
					<dim>14</dim>
					<dim>14</dim>
				</port>
			</output>
		</layer>
		<layer id="59" name="res4a_branch2b" precision="FP32" type="Convolution">
			<data dilations="1,1" group="1" kernel="3,3" output="256" pads_begin="1,1" pads_end="1,1" strides="1,1"/>
			<input>
				<port id="0">
					<dim>1</dim>
					<dim>256</dim>
					<dim>14</dim>
					<dim>14</dim>
				</port>
			</input>
			<output>
				<port id="3">
					<dim>1</dim>
					<dim>256</dim>
					<dim>14</dim>
					<dim>14</dim>
				</port>
			</output>
			<blobs>
				<weights offset="6284800" size="2359296"/>
				<biases offset="8644096" size="1024"/>
			</blobs>
		</layer>
		<layer id="60" name="res4a_branch2b_relu" precision="FP32" type="ReLU">
			<data negative_slope="0.0"/>
			<input>
				<port id="0">
					<dim>1</dim>
					<dim>256</dim>
					<dim>14</dim>
					<dim>14</dim>
				</port>
			</input>
			<output>
				<port id="1">
					<dim>1</dim>
					<dim>256</dim>
					<dim>14</dim>
					<dim>14</dim>
				</port>
			</output>
		</layer>
		<layer id="61" name="res4a_branch2c" precision="FP32" type="Convolution">
			<data dilations="1,1" group="1" kernel="1,1" output="1024" pads_begin="0,0" pads_end="0,0" strides="1,1"/>
			<input>
				<port id="0">
					<dim>1</dim>
					<dim>256</dim>
					<dim>14</dim>
					<dim>14</dim>
				</port>
			</input>
			<output>
				<port id="3">
					<dim>1</dim>
					<dim>1024</dim>
					<dim>14</dim>
					<dim>14</dim>
				</port>
			</output>
			<blobs>
				<weights offset="8645120" size="1048576"/>
				<biases offset="9693696" size="4096"/>
			</blobs>
		</layer>
		<layer id="62" name="res4a_branch1" precision="FP32" type="Convolution">
			<data dilations="1,1" group="1" kernel="1,1" output="1024" pads_begin="0,0" pads_end="0,0" strides="1,1"/>
			<input>
				<port id="0">
					<dim>1</dim>
					<dim>512</dim>
					<dim>14</dim>
					<dim>14</dim>
				</port>
			</input>
			<output>
				<port id="3">
					<dim>1</dim>
					<dim>1024</dim>
					<dim>14</dim>
					<dim>14</dim>
				</port>
			</output>
			<blobs>
				<weights offset="9697792" size="2097152"/>
				<biases offset="11794944" size="4096"/>
			</blobs>
		</layer>
		<layer id="63" name="res4a" precision="FP32" type="Eltwise">
			<data coeff="" operation="sum"/>
			<input>
				<port id="0">
					<dim>1</dim>
					<dim>1024</dim>
					<dim>14</dim>
					<dim>14</dim>
				</port>
				<port id="1">
					<dim>1</dim>
					<dim>1024</dim>
					<dim>14</dim>
					<dim>14</dim>
				</port>
			</input>
			<output>
				<port id="2">
					<dim>1</dim>
					<dim>1024</dim>
					<dim>14</dim>
					<dim>14</dim>
				</port>
			</output>
		</layer>
		<layer id="64" name="res4a_relu" precision="FP32" type="ReLU">
			<data negative_slope="0.0"/>
			<input>
				<port id="0">
					<dim>1</dim>
					<dim>1024</dim>
					<dim>14</dim>
					<dim>14</dim>
				</port>
			</input>
			<output>
				<port id="1">
					<dim>1</dim>
					<dim>1024</dim>
					<dim>14</dim>
					<dim>14</dim>
				</port>
			</output>
		</layer>
		<layer id="65" name="res4b_branch2a" precision="FP32" type="Convolution">
			<data dilations="1,1" group="1" kernel="1,1" output="256" pads_begin="0,0" pads_end="0,0" strides="1,1"/>
			<input>
				<port id="0">
					<dim>1</dim>
					<dim>1024</dim>
					<dim>14</dim>
					<dim>14</dim>
				</port>
			</input>
			<output>
				<port id="3">
					<dim>1</dim>
					<dim>256</dim>
					<dim>14</dim>
					<dim>14</dim>
				</port>
			</output>
			<blobs>
				<weights offset="11799040" size="1048576"/>
				<biases offset="12847616" size="1024"/>
			</blobs>
		</layer>
		<layer id="66" name="res4b_branch2a_relu" precision="FP32" type="ReLU">
			<data negative_slope="0.0"/>
			<input>
				<port id="0">
					<dim>1</dim>
					<dim>256</dim>
					<dim>14</dim>
					<dim>14</dim>
				</port>
			</input>
			<output>
				<port id="1">
					<dim>1</dim>
					<dim>256</dim>
					<dim>14</dim>
					<dim>14</dim>
				</port>
			</output>
		</layer>
		<layer id="67" name="res4b_branch2b" precision="FP32" type="Convolution">
			<data dilations="1,1" group="1" kernel="3,3" output="256" pads_begin="1,1" pads_end="1,1" strides="1,1"/>
			<input>
				<port id="0">
					<dim>1</dim>
					<dim>256</dim>
					<dim>14</dim>
					<dim>14</dim>
				</port>
			</input>
			<output>
				<port id="3">
					<dim>1</dim>
					<dim>256</dim>
					<dim>14</dim>
					<dim>14</dim>
				</port>
			</output>
			<blobs>
				<weights offset="12848640" size="2359296"/>
				<biases offset="15207936" size="1024"/>
			</blobs>
		</layer>
		<layer id="68" name="res4b_branch2b_relu" precision="FP32" type="ReLU">
			<data negative_slope="0.0"/>
			<input>
				<port id="0">
					<dim>1</dim>
					<dim>256</dim>
					<dim>14</dim>
					<dim>14</dim>
				</port>
			</input>
			<output>
				<port id="1">
					<dim>1</dim>
					<dim>256</dim>
					<dim>14</dim>
					<dim>14</dim>
				</port>
			</output>
		</layer>
		<layer id="69" name="res4b_branch2c" precision="FP32" type="Convolution">
			<data dilations="1,1" group="1" kernel="1,1" output="1024" pads_begin="0,0" pads_end="0,0" strides="1,1"/>
			<input>
				<port id="0">
					<dim>1</dim>
					<dim>256</dim>
					<dim>14</dim>
					<dim>14</dim>
				</port>
			</input>
			<output>
				<port id="3">
					<dim>1</dim>
					<dim>1024</dim>
					<dim>14</dim>
					<dim>14</dim>
				</port>
			</output>
			<blobs>
				<weights offset="15208960" size="1048576"/>
				<biases offset="16257536" size="4096"/>
			</blobs>
		</layer>
		<layer id="70" name="res4b" precision="FP32" type="Eltwise">
			<data coeff="" operation="sum"/>
			<input>
				<port id="0">
					<dim>1</dim>
					<dim>1024</dim>
					<dim>14</dim>
					<dim>14</dim>
				</port>
				<port id="1">
					<dim>1</dim>
					<dim>1024</dim>
					<dim>14</dim>
					<dim>14</dim>
				</port>
			</input>
			<output>
				<port id="2">
					<dim>1</dim>
					<dim>1024</dim>
					<dim>14</dim>
					<dim>14</dim>
				</port>
			</output>
		</layer>
		<layer id="71" name="res4b_relu" precision="FP32" type="ReLU">
			<data negative_slope="0.0"/>
			<input>
				<port id="0">
					<dim>1</dim>
					<dim>1024</dim>
					<dim>14</dim>
					<dim>14</dim>
				</port>
			</input>
			<output>
				<port id="1">
					<dim>1</dim>
					<dim>1024</dim>
					<dim>14</dim>
					<dim>14</dim>
				</port>
			</output>
		</layer>
		<layer id="72" name="res4c_branch2a" precision="FP32" type="Convolution">
			<data dilations="1,1" group="1" kernel="1,1" output="256" pads_begin="0,0" pads_end="0,0" strides="1,1"/>
			<input>
				<port id="0">
					<dim>1</dim>
					<dim>1024</dim>
					<dim>14</dim>
					<dim>14</dim>
				</port>
			</input>
			<output>
				<port id="3">
					<dim>1</dim>
					<dim>256</dim>
					<dim>14</dim>
					<dim>14</dim>
				</port>
			</output>
			<blobs>
				<weights offset="16261632" size="1048576"/>
				<biases offset="17310208" size="1024"/>
			</blobs>
		</layer>
		<layer id="73" name="res4c_branch2a_relu" precision="FP32" type="ReLU">
			<data negative_slope="0.0"/>
			<input>
				<port id="0">
					<dim>1</dim>
					<dim>256</dim>
					<dim>14</dim>
					<dim>14</dim>
				</port>
			</input>
			<output>
				<port id="1">
					<dim>1</dim>
					<dim>256</dim>
					<dim>14</dim>
					<dim>14</dim>
				</port>
			</output>
		</layer>
		<layer id="74" name="res4c_branch2b" precision="FP32" type="Convolution">
			<data dilations="1,1" group="1" kernel="3,3" output="256" pads_begin="1,1" pads_end="1,1" strides="1,1"/>
			<input>
				<port id="0">
					<dim>1</dim>
					<dim>256</dim>
					<dim>14</dim>
					<dim>14</dim>
				</port>
			</input>
			<output>
				<port id="3">
					<dim>1</dim>
					<dim>256</dim>
					<dim>14</dim>
					<dim>14</dim>
				</port>
			</output>
			<blobs>
				<weights offset="17311232" size="2359296"/>
				<biases offset="19670528" size="1024"/>
			</blobs>
		</layer>
		<layer id="75" name="res4c_branch2b_relu" precision="FP32" type="ReLU">
			<data negative_slope="0.0"/>
			<input>
				<port id="0">
					<dim>1</dim>
					<dim>256</dim>
					<dim>14</dim>
					<dim>14</dim>
				</port>
			</input>
			<output>
				<port id="1">
					<dim>1</dim>
					<dim>256</dim>
					<dim>14</dim>
					<dim>14</dim>
				</port>
			</output>
		</layer>
		<layer id="76" name="res4c_branch2c" precision="FP32" type="Convolution">
			<data dilations="1,1" group="1" kernel="1,1" output="1024" pads_begin="0,0" pads_end="0,0" strides="1,1"/>
			<input>
				<port id="0">
					<dim>1</dim>
					<dim>256</dim>
					<dim>14</dim>
					<dim>14</dim>
				</port>
			</input>
			<output>
				<port id="3">
					<dim>1</dim>
					<dim>1024</dim>
					<dim>14</dim>
					<dim>14</dim>
				</port>
			</output>
			<blobs>
				<weights offset="19671552" size="1048576"/>
				<biases offset="20720128" size="4096"/>
			</blobs>
		</layer>
		<layer id="77" name="res4c" precision="FP32" type="Eltwise">
			<data coeff="" operation="sum"/>
			<input>
				<port id="0">
					<dim>1</dim>
					<dim>1024</dim>
					<dim>14</dim>
					<dim>14</dim>
				</port>
				<port id="1">
					<dim>1</dim>
					<dim>1024</dim>
					<dim>14</dim>
					<dim>14</dim>
				</port>
			</input>
			<output>
				<port id="2">
					<dim>1</dim>
					<dim>1024</dim>
					<dim>14</dim>
					<dim>14</dim>
				</port>
			</output>
		</layer>
		<layer id="78" name="res4c_relu" precision="FP32" type="ReLU">
			<data negative_slope="0.0"/>
			<input>
				<port id="0">
					<dim>1</dim>
					<dim>1024</dim>
					<dim>14</dim>
					<dim>14</dim>
				</port>
			</input>
			<output>
				<port id="1">
					<dim>1</dim>
					<dim>1024</dim>
					<dim>14</dim>
					<dim>14</dim>
				</port>
			</output>
		</layer>
		<layer id="79" name="res4d_branch2a" precision="FP32" type="Convolution">
			<data dilations="1,1" group="1" kernel="1,1" output="256" pads_begin="0,0" pads_end="0,0" strides="1,1"/>
			<input>
				<port id="0">
					<dim>1</dim>
					<dim>1024</dim>
					<dim>14</dim>
					<dim>14</dim>
				</port>
			</input>
			<output>
				<port id="3">
					<dim>1</dim>
					<dim>256</dim>
					<dim>14</dim>
					<dim>14</dim>
				</port>
			</output>
			<blobs>
				<weights offset="20724224" size="1048576"/>
				<biases offset="21772800" size="1024"/>
			</blobs>
		</layer>
		<layer id="80" name="res4d_branch2a_relu" precision="FP32" type="ReLU">
			<data negative_slope="0.0"/>
			<input>
				<port id="0">
					<dim>1</dim>
					<dim>256</dim>
					<dim>14</dim>
					<dim>14</dim>
				</port>
			</input>
			<output>
				<port id="1">
					<dim>1</dim>
					<dim>256</dim>
					<dim>14</dim>
					<dim>14</dim>
				</port>
			</output>
		</layer>
		<layer id="81" name="res4d_branch2b" precision="FP32" type="Convolution">
			<data dilations="1,1" group="1" kernel="3,3" output="256" pads_begin="1,1" pads_end="1,1" strides="1,1"/>
			<input>
				<port id="0">
					<dim>1</dim>
					<dim>256</dim>
					<dim>14</dim>
					<dim>14</dim>
				</port>
			</input>
			<output>
				<port id="3">
					<dim>1</dim>
					<dim>256</dim>
					<dim>14</dim>
					<dim>14</dim>
				</port>
			</output>
			<blobs>
				<weights offset="21773824" size="2359296"/>
				<biases offset="24133120" size="1024"/>
			</blobs>
		</layer>
		<layer id="82" name="res4d_branch2b_relu" precision="FP32" type="ReLU">
			<data negative_slope="0.0"/>
			<input>
				<port id="0">
					<dim>1</dim>
					<dim>256</dim>
					<dim>14</dim>
					<dim>14</dim>
				</port>
			</input>
			<output>
				<port id="1">
					<dim>1</dim>
					<dim>256</dim>
					<dim>14</dim>
					<dim>14</dim>
				</port>
			</output>
		</layer>
		<layer id="83" name="res4d_branch2c" precision="FP32" type="Convolution">
			<data dilations="1,1" group="1" kernel="1,1" output="1024" pads_begin="0,0" pads_end="0,0" strides="1,1"/>
			<input>
				<port id="0">
					<dim>1</dim>
					<dim>256</dim>
					<dim>14</dim>
					<dim>14</dim>
				</port>
			</input>
			<output>
				<port id="3">
					<dim>1</dim>
					<dim>1024</dim>
					<dim>14</dim>
					<dim>14</dim>
				</port>
			</output>
			<blobs>
				<weights offset="24134144" size="1048576"/>
				<biases offset="25182720" size="4096"/>
			</blobs>
		</layer>
		<layer id="84" name="res4d" precision="FP32" type="Eltwise">
			<data coeff="" operation="sum"/>
			<input>
				<port id="0">
					<dim>1</dim>
					<dim>1024</dim>
					<dim>14</dim>
					<dim>14</dim>
				</port>
				<port id="1">
					<dim>1</dim>
					<dim>1024</dim>
					<dim>14</dim>
					<dim>14</dim>
				</port>
			</input>
			<output>
				<port id="2">
					<dim>1</dim>
					<dim>1024</dim>
					<dim>14</dim>
					<dim>14</dim>
				</port>
			</output>
		</layer>
		<layer id="85" name="res4d_relu" precision="FP32" type="ReLU">
			<data negative_slope="0.0"/>
			<input>
				<port id="0">
					<dim>1</dim>
					<dim>1024</dim>
					<dim>14</dim>
					<dim>14</dim>
				</port>
			</input>
			<output>
				<port id="1">
					<dim>1</dim>
					<dim>1024</dim>
					<dim>14</dim>
					<dim>14</dim>
				</port>
			</output>
		</layer>
		<layer id="86" name="res4e_branch2a" precision="FP32" type="Convolution">
			<data dilations="1,1" group="1" kernel="1,1" output="256" pads_begin="0,0" pads_end="0,0" strides="1,1"/>
			<input>
				<port id="0">
					<dim>1</dim>
					<dim>1024</dim>
					<dim>14</dim>
					<dim>14</dim>
				</port>
			</input>
			<output>
				<port id="3">
					<dim>1</dim>
					<dim>256</dim>
					<dim>14</dim>
					<dim>14</dim>
				</port>
			</output>
			<blobs>
				<weights offset="25186816" size="1048576"/>
				<biases offset="26235392" size="1024"/>
			</blobs>
		</layer>
		<layer id="87" name="res4e_branch2a_relu" precision="FP32" type="ReLU">
			<data negative_slope="0.0"/>
			<input>
				<port id="0">
					<dim>1</dim>
					<dim>256</dim>
					<dim>14</dim>
					<dim>14</dim>
				</port>
			</input>
			<output>
				<port id="1">
					<dim>1</dim>
					<dim>256</dim>
					<dim>14</dim>
					<dim>14</dim>
				</port>
			</output>
		</layer>
		<layer id="88" name="res4e_branch2b" precision="FP32" type="Convolution">
			<data dilations="1,1" group="1" kernel="3,3" output="256" pads_begin="1,1" pads_end="1,1" strides="1,1"/>
			<input>
				<port id="0">
					<dim>1</dim>
					<dim>256</dim>
					<dim>14</dim>
					<dim>14</dim>
				</port>
			</input>
			<output>
				<port id="3">
					<dim>1</dim>
					<dim>256</dim>
					<dim>14</dim>
					<dim>14</dim>
				</port>
			</output>
			<blobs>
				<weights offset="26236416" size="2359296"/>
				<biases offset="28595712" size="1024"/>
			</blobs>
		</layer>
		<layer id="89" name="res4e_branch2b_relu" precision="FP32" type="ReLU">
			<data negative_slope="0.0"/>
			<input>
				<port id="0">
					<dim>1</dim>
					<dim>256</dim>
					<dim>14</dim>
					<dim>14</dim>
				</port>
			</input>
			<output>
				<port id="1">
					<dim>1</dim>
					<dim>256</dim>
					<dim>14</dim>
					<dim>14</dim>
				</port>
			</output>
		</layer>
		<layer id="90" name="res4e_branch2c" precision="FP32" type="Convolution">
			<data dilations="1,1" group="1" kernel="1,1" output="1024" pads_begin="0,0" pads_end="0,0" strides="1,1"/>
			<input>
				<port id="0">
					<dim>1</dim>
					<dim>256</dim>
					<dim>14</dim>
					<dim>14</dim>
				</port>
			</input>
			<output>
				<port id="3">
					<dim>1</dim>
					<dim>1024</dim>
					<dim>14</dim>
					<dim>14</dim>
				</port>
			</output>
			<blobs>
				<weights offset="28596736" size="1048576"/>
				<biases offset="29645312" size="4096"/>
			</blobs>
		</layer>
		<layer id="91" name="res4e" precision="FP32" type="Eltwise">
			<data coeff="" operation="sum"/>
			<input>
				<port id="0">
					<dim>1</dim>
					<dim>1024</dim>
					<dim>14</dim>
					<dim>14</dim>
				</port>
				<port id="1">
					<dim>1</dim>
					<dim>1024</dim>
					<dim>14</dim>
					<dim>14</dim>
				</port>
			</input>
			<output>
				<port id="2">
					<dim>1</dim>
					<dim>1024</dim>
					<dim>14</dim>
					<dim>14</dim>
				</port>
			</output>
		</layer>
		<layer id="92" name="res4e_relu" precision="FP32" type="ReLU">
			<data negative_slope="0.0"/>
			<input>
				<port id="0">
					<dim>1</dim>
					<dim>1024</dim>
					<dim>14</dim>
					<dim>14</dim>
				</port>
			</input>
			<output>
				<port id="1">
					<dim>1</dim>
					<dim>1024</dim>
					<dim>14</dim>
					<dim>14</dim>
				</port>
			</output>
		</layer>
		<layer id="93" name="res4f_branch2a" precision="FP32" type="Convolution">
			<data dilations="1,1" group="1" kernel="1,1" output="256" pads_begin="0,0" pads_end="0,0" strides="1,1"/>
			<input>
				<port id="0">
					<dim>1</dim>
					<dim>1024</dim>
					<dim>14</dim>
					<dim>14</dim>
				</port>
			</input>
			<output>
				<port id="3">
					<dim>1</dim>
					<dim>256</dim>
					<dim>14</dim>
					<dim>14</dim>
				</port>
			</output>
			<blobs>
				<weights offset="29649408" size="1048576"/>
				<biases offset="30697984" size="1024"/>
			</blobs>
		</layer>
		<layer id="94" name="res4f_branch2a_relu" precision="FP32" type="ReLU">
			<data negative_slope="0.0"/>
			<input>
				<port id="0">
					<dim>1</dim>
					<dim>256</dim>
					<dim>14</dim>
					<dim>14</dim>
				</port>
			</input>
			<output>
				<port id="1">
					<dim>1</dim>
					<dim>256</dim>
					<dim>14</dim>
					<dim>14</dim>
				</port>
			</output>
		</layer>
		<layer id="95" name="res4f_branch2b" precision="FP32" type="Convolution">
			<data dilations="1,1" group="1" kernel="3,3" output="256" pads_begin="1,1" pads_end="1,1" strides="2,2"/>
			<input>
				<port id="0">
					<dim>1</dim>
					<dim>256</dim>
					<dim>14</dim>
					<dim>14</dim>
				</port>
			</input>
			<output>
				<port id="3">
					<dim>1</dim>
					<dim>256</dim>
					<dim>7</dim>
					<dim>7</dim>
				</port>
			</output>
			<blobs>
				<weights offset="30699008" size="2359296"/>
				<biases offset="33058304" size="1024"/>
			</blobs>
		</layer>
		<layer id="96" name="res4f_branch2b_relu" precision="FP32" type="ReLU">
			<data negative_slope="0.0"/>
			<input>
				<port id="0">
					<dim>1</dim>
					<dim>256</dim>
					<dim>7</dim>
					<dim>7</dim>
				</port>
			</input>
			<output>
				<port id="1">
					<dim>1</dim>
					<dim>256</dim>
					<dim>7</dim>
					<dim>7</dim>
				</port>
			</output>
		</layer>
		<layer id="97" name="res4f_branch2c" precision="FP32" type="Convolution">
			<data dilations="1,1" group="1" kernel="1,1" output="1024" pads_begin="0,0" pads_end="0,0" strides="1,1"/>
			<input>
				<port id="0">
					<dim>1</dim>
					<dim>256</dim>
					<dim>7</dim>
					<dim>7</dim>
				</port>
			</input>
			<output>
				<port id="3">
					<dim>1</dim>
					<dim>1024</dim>
					<dim>7</dim>
					<dim>7</dim>
				</port>
			</output>
			<blobs>
				<weights offset="33059328" size="1048576"/>
				<biases offset="34107904" size="4096"/>
			</blobs>
		</layer>
		<layer id="98" name="Pooling_" precision="FP32" type="Pooling">
			<data kernel="1,1" pads_begin="0,0" pads_end="0,0" pool-method="max" strides="2,2"/>
			<input>
				<port id="0">
					<dim>1</dim>
					<dim>1024</dim>
					<dim>14</dim>
					<dim>14</dim>
				</port>
			</input>
			<output>
				<port id="1">
					<dim>1</dim>
					<dim>1024</dim>
					<dim>7</dim>
					<dim>7</dim>
				</port>
			</output>
		</layer>
		<layer id="99" name="res4f" precision="FP32" type="Eltwise">
			<data coeff="" operation="sum"/>
			<input>
				<port id="0">
					<dim>1</dim>
					<dim>1024</dim>
					<dim>7</dim>
					<dim>7</dim>
				</port>
				<port id="1">
					<dim>1</dim>
					<dim>1024</dim>
					<dim>7</dim>
					<dim>7</dim>
				</port>
			</input>
			<output>
				<port id="2">
					<dim>1</dim>
					<dim>1024</dim>
					<dim>7</dim>
					<dim>7</dim>
				</port>
			</output>
		</layer>
		<layer id="100" name="res4f_relu" precision="FP32" type="ReLU">
			<data negative_slope="0.0"/>
			<input>
				<port id="0">
					<dim>1</dim>
					<dim>1024</dim>
					<dim>7</dim>
					<dim>7</dim>
				</port>
			</input>
			<output>
				<port id="1">
					<dim>1</dim>
					<dim>1024</dim>
					<dim>7</dim>
					<dim>7</dim>
				</port>
			</output>
		</layer>
		<layer id="101" name="res5a_branch2a" precision="FP32" type="Convolution">
			<data dilations="1,1" group="1" kernel="1,1" output="512" pads_begin="0,0" pads_end="0,0" strides="1,1"/>
			<input>
				<port id="0">
					<dim>1</dim>
					<dim>1024</dim>
					<dim>7</dim>
					<dim>7</dim>
				</port>
			</input>
			<output>
				<port id="3">
					<dim>1</dim>
					<dim>512</dim>
					<dim>7</dim>
					<dim>7</dim>
				</port>
			</output>
			<blobs>
				<weights offset="34112000" size="2097152"/>
				<biases offset="36209152" size="2048"/>
			</blobs>
		</layer>
		<layer id="102" name="res5a_branch2a_relu" precision="FP32" type="ReLU">
			<data negative_slope="0.0"/>
			<input>
				<port id="0">
					<dim>1</dim>
					<dim>512</dim>
					<dim>7</dim>
					<dim>7</dim>
				</port>
			</input>
			<output>
				<port id="1">
					<dim>1</dim>
					<dim>512</dim>
					<dim>7</dim>
					<dim>7</dim>
				</port>
			</output>
		</layer>
		<layer id="103" name="res5a_branch2b" precision="FP32" type="Convolution">
			<data dilations="1,1" group="1" kernel="3,3" output="512" pads_begin="1,1" pads_end="1,1" strides="1,1"/>
			<input>
				<port id="0">
					<dim>1</dim>
					<dim>512</dim>
					<dim>7</dim>
					<dim>7</dim>
				</port>
			</input>
			<output>
				<port id="3">
					<dim>1</dim>
					<dim>512</dim>
					<dim>7</dim>
					<dim>7</dim>
				</port>
			</output>
			<blobs>
				<weights offset="36211200" size="9437184"/>
				<biases offset="45648384" size="2048"/>
			</blobs>
		</layer>
		<layer id="104" name="res5a_branch2b_relu" precision="FP32" type="ReLU">
			<data negative_slope="0.0"/>
			<input>
				<port id="0">
					<dim>1</dim>
					<dim>512</dim>
					<dim>7</dim>
					<dim>7</dim>
				</port>
			</input>
			<output>
				<port id="1">
					<dim>1</dim>
					<dim>512</dim>
					<dim>7</dim>
					<dim>7</dim>
				</port>
			</output>
		</layer>
		<layer id="105" name="res5a_branch2c" precision="FP32" type="Convolution">
			<data dilations="1,1" group="1" kernel="1,1" output="2048" pads_begin="0,0" pads_end="0,0" strides="1,1"/>
			<input>
				<port id="0">
					<dim>1</dim>
					<dim>512</dim>
					<dim>7</dim>
					<dim>7</dim>
				</port>
			</input>
			<output>
				<port id="3">
					<dim>1</dim>
					<dim>2048</dim>
					<dim>7</dim>
					<dim>7</dim>
				</port>
			</output>
			<blobs>
				<weights offset="45650432" size="4194304"/>
				<biases offset="49844736" size="8192"/>
			</blobs>
		</layer>
		<layer id="106" name="res5a_branch1" precision="FP32" type="Convolution">
			<data dilations="1,1" group="1" kernel="1,1" output="2048" pads_begin="0,0" pads_end="0,0" strides="1,1"/>
			<input>
				<port id="0">
					<dim>1</dim>
					<dim>1024</dim>
					<dim>7</dim>
					<dim>7</dim>
				</port>
			</input>
			<output>
				<port id="3">
					<dim>1</dim>
					<dim>2048</dim>
					<dim>7</dim>
					<dim>7</dim>
				</port>
			</output>
			<blobs>
				<weights offset="49852928" size="8388608"/>
				<biases offset="58241536" size="8192"/>
			</blobs>
		</layer>
		<layer id="107" name="res5a" precision="FP32" type="Eltwise">
			<data coeff="" operation="sum"/>
			<input>
				<port id="0">
					<dim>1</dim>
					<dim>2048</dim>
					<dim>7</dim>
					<dim>7</dim>
				</port>
				<port id="1">
					<dim>1</dim>
					<dim>2048</dim>
					<dim>7</dim>
					<dim>7</dim>
				</port>
			</input>
			<output>
				<port id="2">
					<dim>1</dim>
					<dim>2048</dim>
					<dim>7</dim>
					<dim>7</dim>
				</port>
			</output>
		</layer>
		<layer id="108" name="res5a_relu" precision="FP32" type="ReLU">
			<data negative_slope="0.0"/>
			<input>
				<port id="0">
					<dim>1</dim>
					<dim>2048</dim>
					<dim>7</dim>
					<dim>7</dim>
				</port>
			</input>
			<output>
				<port id="1">
					<dim>1</dim>
					<dim>2048</dim>
					<dim>7</dim>
					<dim>7</dim>
				</port>
			</output>
		</layer>
		<layer id="109" name="res5b_branch2a" precision="FP32" type="Convolution">
			<data dilations="1,1" group="1" kernel="1,1" output="512" pads_begin="0,0" pads_end="0,0" strides="1,1"/>
			<input>
				<port id="0">
					<dim>1</dim>
					<dim>2048</dim>
					<dim>7</dim>
					<dim>7</dim>
				</port>
			</input>
			<output>
				<port id="3">
					<dim>1</dim>
					<dim>512</dim>
					<dim>7</dim>
					<dim>7</dim>
				</port>
			</output>
			<blobs>
				<weights offset="58249728" size="4194304"/>
				<biases offset="62444032" size="2048"/>
			</blobs>
		</layer>
		<layer id="110" name="res5b_branch2a_relu" precision="FP32" type="ReLU">
			<data negative_slope="0.0"/>
			<input>
				<port id="0">
					<dim>1</dim>
					<dim>512</dim>
					<dim>7</dim>
					<dim>7</dim>
				</port>
			</input>
			<output>
				<port id="1">
					<dim>1</dim>
					<dim>512</dim>
					<dim>7</dim>
					<dim>7</dim>
				</port>
			</output>
		</layer>
		<layer id="111" name="res5b_branch2b" precision="FP32" type="Convolution">
			<data dilations="1,1" group="1" kernel="3,3" output="512" pads_begin="1,1" pads_end="1,1" strides="1,1"/>
			<input>
				<port id="0">
					<dim>1</dim>
					<dim>512</dim>
					<dim>7</dim>
					<dim>7</dim>
				</port>
			</input>
			<output>
				<port id="3">
					<dim>1</dim>
					<dim>512</dim>
					<dim>7</dim>
					<dim>7</dim>
				</port>
			</output>
			<blobs>
				<weights offset="62446080" size="9437184"/>
				<biases offset="71883264" size="2048"/>
			</blobs>
		</layer>
		<layer id="112" name="res5b_branch2b_relu" precision="FP32" type="ReLU">
			<data negative_slope="0.0"/>
			<input>
				<port id="0">
					<dim>1</dim>
					<dim>512</dim>
					<dim>7</dim>
					<dim>7</dim>
				</port>
			</input>
			<output>
				<port id="1">
					<dim>1</dim>
					<dim>512</dim>
					<dim>7</dim>
					<dim>7</dim>
				</port>
			</output>
		</layer>
		<layer id="113" name="res5b_branch2c" precision="FP32" type="Convolution">
			<data dilations="1,1" group="1" kernel="1,1" output="2048" pads_begin="0,0" pads_end="0,0" strides="1,1"/>
			<input>
				<port id="0">
					<dim>1</dim>
					<dim>512</dim>
					<dim>7</dim>
					<dim>7</dim>
				</port>
			</input>
			<output>
				<port id="3">
					<dim>1</dim>
					<dim>2048</dim>
					<dim>7</dim>
					<dim>7</dim>
				</port>
			</output>
			<blobs>
				<weights offset="71885312" size="4194304"/>
				<biases offset="76079616" size="8192"/>
			</blobs>
		</layer>
		<layer id="114" name="res5b" precision="FP32" type="Eltwise">
			<data coeff="" operation="sum"/>
			<input>
				<port id="0">
					<dim>1</dim>
					<dim>2048</dim>
					<dim>7</dim>
					<dim>7</dim>
				</port>
				<port id="1">
					<dim>1</dim>
					<dim>2048</dim>
					<dim>7</dim>
					<dim>7</dim>
				</port>
			</input>
			<output>
				<port id="2">
					<dim>1</dim>
					<dim>2048</dim>
					<dim>7</dim>
					<dim>7</dim>
				</port>
			</output>
		</layer>
		<layer id="115" name="res5b_relu" precision="FP32" type="ReLU">
			<data negative_slope="0.0"/>
			<input>
				<port id="0">
					<dim>1</dim>
					<dim>2048</dim>
					<dim>7</dim>
					<dim>7</dim>
				</port>
			</input>
			<output>
				<port id="1">
					<dim>1</dim>
					<dim>2048</dim>
					<dim>7</dim>
					<dim>7</dim>
				</port>
			</output>
		</layer>
		<layer id="116" name="res5c_branch2a" precision="FP32" type="Convolution">
			<data dilations="1,1" group="1" kernel="1,1" output="512" pads_begin="0,0" pads_end="0,0" strides="1,1"/>
			<input>
				<port id="0">
					<dim>1</dim>
					<dim>2048</dim>
					<dim>7</dim>
					<dim>7</dim>
				</port>
			</input>
			<output>
				<port id="3">
					<dim>1</dim>
					<dim>512</dim>
					<dim>7</dim>
					<dim>7</dim>
				</port>
			</output>
			<blobs>
				<weights offset="76087808" size="4194304"/>
				<biases offset="80282112" size="2048"/>
			</blobs>
		</layer>
		<layer id="117" name="res5c_branch2a_relu" precision="FP32" type="ReLU">
			<data negative_slope="0.0"/>
			<input>
				<port id="0">
					<dim>1</dim>
					<dim>512</dim>
					<dim>7</dim>
					<dim>7</dim>
				</port>
			</input>
			<output>
				<port id="1">
					<dim>1</dim>
					<dim>512</dim>
					<dim>7</dim>
					<dim>7</dim>
				</port>
			</output>
		</layer>
		<layer id="118" name="res5c_branch2b" precision="FP32" type="Convolution">
			<data dilations="1,1" group="1" kernel="3,3" output="512" pads_begin="1,1" pads_end="1,1" strides="1,1"/>
			<input>
				<port id="0">
					<dim>1</dim>
					<dim>512</dim>
					<dim>7</dim>
					<dim>7</dim>
				</port>
			</input>
			<output>
				<port id="3">
					<dim>1</dim>
					<dim>512</dim>
					<dim>7</dim>
					<dim>7</dim>
				</port>
			</output>
			<blobs>
				<weights offset="80284160" size="9437184"/>
				<biases offset="89721344" size="2048"/>
			</blobs>
		</layer>
		<layer id="119" name="res5c_branch2b_relu" precision="FP32" type="ReLU">
			<data negative_slope="0.0"/>
			<input>
				<port id="0">
					<dim>1</dim>
					<dim>512</dim>
					<dim>7</dim>
					<dim>7</dim>
				</port>
			</input>
			<output>
				<port id="1">
					<dim>1</dim>
					<dim>512</dim>
					<dim>7</dim>
					<dim>7</dim>
				</port>
			</output>
		</layer>
		<layer id="120" name="res5c_branch2c" precision="FP32" type="Convolution">
			<data dilations="1,1" group="1" kernel="1,1" output="2048" pads_begin="0,0" pads_end="0,0" strides="1,1"/>
			<input>
				<port id="0">
					<dim>1</dim>
					<dim>512</dim>
					<dim>7</dim>
					<dim>7</dim>
				</port>
			</input>
			<output>
				<port id="3">
					<dim>1</dim>
					<dim>2048</dim>
					<dim>7</dim>
					<dim>7</dim>
				</port>
			</output>
			<blobs>
				<weights offset="89723392" size="4194304"/>
				<biases offset="93917696" size="8192"/>
			</blobs>
		</layer>
		<layer id="121" name="res5c" precision="FP32" type="Eltwise">
			<data coeff="" operation="sum"/>
			<input>
				<port id="0">
					<dim>1</dim>
					<dim>2048</dim>
					<dim>7</dim>
					<dim>7</dim>
				</port>
				<port id="1">
					<dim>1</dim>
					<dim>2048</dim>
					<dim>7</dim>
					<dim>7</dim>
				</port>
			</input>
			<output>
				<port id="2">
					<dim>1</dim>
					<dim>2048</dim>
					<dim>7</dim>
					<dim>7</dim>
				</port>
			</output>
		</layer>
		<layer id="122" name="res5c_relu" precision="FP32" type="ReLU">
			<data negative_slope="0.0"/>
			<input>
				<port id="0">
					<dim>1</dim>
					<dim>2048</dim>
					<dim>7</dim>
					<dim>7</dim>
				</port>
			</input>
			<output>
				<port id="1">
					<dim>1</dim>
					<dim>2048</dim>
					<dim>7</dim>
					<dim>7</dim>
				</port>
			</output>
		</layer>
		<layer id="123" name="pool5" precision="FP32" type="Pooling">
			<data exclude-pad="false" kernel="7,7" pads_begin="0,0" pads_end="0,0" pool-method="avg" rounding_type="ceil" strides="1,1"/>
			<input>
				<port id="0">
					<dim>1</dim>
					<dim>2048</dim>
					<dim>7</dim>
					<dim>7</dim>
				</port>
			</input>
			<output>
				<port id="1">
					<dim>1</dim>
					<dim>2048</dim>
					<dim>1</dim>
					<dim>1</dim>
				</port>
			</output>
		</layer>
		<layer id="124" name="conv_dr" precision="FP32" type="FullyConnected">
			<data out-size="128"/>
			<input>
				<port id="0">
					<dim>1</dim>
					<dim>2048</dim>
					<dim>1</dim>
					<dim>1</dim>
				</port>
			</input>
			<output>
				<port id="3">
					<dim>1</dim>
					<dim>128</dim>
				</port>
			</output>
			<blobs>
				<weights offset="93925888" size="1048576"/>
				<biases offset="94974464" size="512"/>
			</blobs>
		</layer>
		<layer id="125" name="conv_dr_relu" precision="FP32" type="ReLU">
			<data negative_slope="0.0"/>
			<input>
				<port id="0">
					<dim>1</dim>
					<dim>128</dim>
				</port>
			</input>
			<output>
				<port id="1">
					<dim>1</dim>
					<dim>128</dim>
				</port>
			</output>
		</layer>
		<layer id="126" name="fc1000" precision="FP32" type="FullyConnected">
			<data out-size="1000"/>
			<input>
				<port id="0">
					<dim>1</dim>
					<dim>128</dim>
				</port>
			</input>
			<output>
				<port id="3">
					<dim>1</dim>
					<dim>1000</dim>
				</port>
			</output>
			<blobs>
				<weights offset="94974976" size="512000"/>
				<biases offset="95486976" size="4000"/>
			</blobs>
		</layer>
		<layer id="127" name="prob" precision="FP32" type="SoftMax">
			<data axis="1"/>
			<input>
				<port id="0">
					<dim>1</dim>
					<dim>1000</dim>
				</port>
			</input>
			<output>
				<port id="1">
					<dim>1</dim>
					<dim>1000</dim>
				</port>
			</output>
		</layer>
	</layers>
	<edges>
		<edge from-layer="0" from-port="0" to-layer="1" to-port="0"/>
		<edge from-layer="1" from-port="3" to-layer="2" to-port="0"/>
		<edge from-layer="2" from-port="1" to-layer="3" to-port="0"/>
		<edge from-layer="3" from-port="1" to-layer="4" to-port="0"/>
		<edge from-layer="4" from-port="3" to-layer="5" to-port="0"/>
		<edge from-layer="5" from-port="1" to-layer="6" to-port="0"/>
		<edge from-layer="6" from-port="3" to-layer="7" to-port="0"/>
		<edge from-layer="7" from-port="1" to-layer="8" to-port="0"/>
		<edge from-layer="3" from-port="1" to-layer="9" to-port="0"/>
		<edge from-layer="8" from-port="3" to-layer="10" to-port="0"/>
		<edge from-layer="9" from-port="3" to-layer="10" to-port="1"/>
		<edge from-layer="10" from-port="2" to-layer="11" to-port="0"/>
		<edge from-layer="11" from-port="1" to-layer="12" to-port="0"/>
		<edge from-layer="12" from-port="3" to-layer="13" to-port="0"/>
		<edge from-layer="13" from-port="1" to-layer="14" to-port="0"/>
		<edge from-layer="14" from-port="3" to-layer="15" to-port="0"/>
		<edge from-layer="15" from-port="1" to-layer="16" to-port="0"/>
		<edge from-layer="16" from-port="3" to-layer="17" to-port="0"/>
		<edge from-layer="11" from-port="1" to-layer="17" to-port="1"/>
		<edge from-layer="17" from-port="2" to-layer="18" to-port="0"/>
		<edge from-layer="18" from-port="1" to-layer="19" to-port="0"/>
		<edge from-layer="19" from-port="3" to-layer="20" to-port="0"/>
		<edge from-layer="20" from-port="1" to-layer="21" to-port="0"/>
		<edge from-layer="21" from-port="3" to-layer="22" to-port="0"/>
		<edge from-layer="22" from-port="1" to-layer="23" to-port="0"/>
		<edge from-layer="18" from-port="1" to-layer="24" to-port="0"/>
		<edge from-layer="23" from-port="3" to-layer="25" to-port="0"/>
		<edge from-layer="24" from-port="1" to-layer="25" to-port="1"/>
		<edge from-layer="25" from-port="2" to-layer="26" to-port="0"/>
		<edge from-layer="26" from-port="1" to-layer="27" to-port="0"/>
		<edge from-layer="27" from-port="3" to-layer="28" to-port="0"/>
		<edge from-layer="28" from-port="1" to-layer="29" to-port="0"/>
		<edge from-layer="29" from-port="3" to-layer="30" to-port="0"/>
		<edge from-layer="30" from-port="1" to-layer="31" to-port="0"/>
		<edge from-layer="26" from-port="1" to-layer="32" to-port="0"/>
		<edge from-layer="31" from-port="3" to-layer="33" to-port="0"/>
		<edge from-layer="32" from-port="3" to-layer="33" to-port="1"/>
		<edge from-layer="33" from-port="2" to-layer="34" to-port="0"/>
		<edge from-layer="34" from-port="1" to-layer="35" to-port="0"/>
		<edge from-layer="35" from-port="3" to-layer="36" to-port="0"/>
		<edge from-layer="36" from-port="1" to-layer="37" to-port="0"/>
		<edge from-layer="37" from-port="3" to-layer="38" to-port="0"/>
		<edge from-layer="38" from-port="1" to-layer="39" to-port="0"/>
		<edge from-layer="39" from-port="3" to-layer="40" to-port="0"/>
		<edge from-layer="34" from-port="1" to-layer="40" to-port="1"/>
		<edge from-layer="40" from-port="2" to-layer="41" to-port="0"/>
		<edge from-layer="41" from-port="1" to-layer="42" to-port="0"/>
		<edge from-layer="42" from-port="3" to-layer="43" to-port="0"/>
		<edge from-layer="43" from-port="1" to-layer="44" to-port="0"/>
		<edge from-layer="44" from-port="3" to-layer="45" to-port="0"/>
		<edge from-layer="45" from-port="1" to-layer="46" to-port="0"/>
		<edge from-layer="46" from-port="3" to-layer="47" to-port="0"/>
		<edge from-layer="41" from-port="1" to-layer="47" to-port="1"/>
		<edge from-layer="47" from-port="2" to-layer="48" to-port="0"/>
		<edge from-layer="48" from-port="1" to-layer="49" to-port="0"/>
		<edge from-layer="49" from-port="3" to-layer="50" to-port="0"/>
		<edge from-layer="50" from-port="1" to-layer="51" to-port="0"/>
		<edge from-layer="51" from-port="3" to-layer="52" to-port="0"/>
		<edge from-layer="52" from-port="1" to-layer="53" to-port="0"/>
		<edge from-layer="48" from-port="1" to-layer="54" to-port="0"/>
		<edge from-layer="53" from-port="3" to-layer="55" to-port="0"/>
		<edge from-layer="54" from-port="1" to-layer="55" to-port="1"/>
		<edge from-layer="55" from-port="2" to-layer="56" to-port="0"/>
		<edge from-layer="56" from-port="1" to-layer="57" to-port="0"/>
		<edge from-layer="57" from-port="3" to-layer="58" to-port="0"/>
		<edge from-layer="58" from-port="1" to-layer="59" to-port="0"/>
		<edge from-layer="59" from-port="3" to-layer="60" to-port="0"/>
		<edge from-layer="60" from-port="1" to-layer="61" to-port="0"/>
		<edge from-layer="56" from-port="1" to-layer="62" to-port="0"/>
		<edge from-layer="61" from-port="3" to-layer="63" to-port="0"/>
		<edge from-layer="62" from-port="3" to-layer="63" to-port="1"/>
		<edge from-layer="63" from-port="2" to-layer="64" to-port="0"/>
		<edge from-layer="64" from-port="1" to-layer="65" to-port="0"/>
		<edge from-layer="65" from-port="3" to-layer="66" to-port="0"/>
		<edge from-layer="66" from-port="1" to-layer="67" to-port="0"/>
		<edge from-layer="67" from-port="3" to-layer="68" to-port="0"/>
		<edge from-layer="68" from-port="1" to-layer="69" to-port="0"/>
		<edge from-layer="69" from-port="3" to-layer="70" to-port="0"/>
		<edge from-layer="64" from-port="1" to-layer="70" to-port="1"/>
		<edge from-layer="70" from-port="2" to-layer="71" to-port="0"/>
		<edge from-layer="71" from-port="1" to-layer="72" to-port="0"/>
		<edge from-layer="72" from-port="3" to-layer="73" to-port="0"/>
		<edge from-layer="73" from-port="1" to-layer="74" to-port="0"/>
		<edge from-layer="74" from-port="3" to-layer="75" to-port="0"/>
		<edge from-layer="75" from-port="1" to-layer="76" to-port="0"/>
		<edge from-layer="76" from-port="3" to-layer="77" to-port="0"/>
		<edge from-layer="71" from-port="1" to-layer="77" to-port="1"/>
		<edge from-layer="77" from-port="2" to-layer="78" to-port="0"/>
		<edge from-layer="78" from-port="1" to-layer="79" to-port="0"/>
		<edge from-layer="79" from-port="3" to-layer="80" to-port="0"/>
		<edge from-layer="80" from-port="1" to-layer="81" to-port="0"/>
		<edge from-layer="81" from-port="3" to-layer="82" to-port="0"/>
		<edge from-layer="82" from-port="1" to-layer="83" to-port="0"/>
		<edge from-layer="83" from-port="3" to-layer="84" to-port="0"/>
		<edge from-layer="78" from-port="1" to-layer="84" to-port="1"/>
		<edge from-layer="84" from-port="2" to-layer="85" to-port="0"/>
		<edge from-layer="85" from-port="1" to-layer="86" to-port="0"/>
		<edge from-layer="86" from-port="3" to-layer="87" to-port="0"/>
		<edge from-layer="87" from-port="1" to-layer="88" to-port="0"/>
		<edge from-layer="88" from-port="3" to-layer="89" to-port="0"/>
		<edge from-layer="89" from-port="1" to-layer="90" to-port="0"/>
		<edge from-layer="90" from-port="3" to-layer="91" to-port="0"/>
		<edge from-layer="85" from-port="1" to-layer="91" to-port="1"/>
		<edge from-layer="91" from-port="2" to-layer="92" to-port="0"/>
		<edge from-layer="92" from-port="1" to-layer="93" to-port="0"/>
		<edge from-layer="93" from-port="3" to-layer="94" to-port="0"/>
		<edge from-layer="94" from-port="1" to-layer="95" to-port="0"/>
		<edge from-layer="95" from-port="3" to-layer="96" to-port="0"/>
		<edge from-layer="96" from-port="1" to-layer="97" to-port="0"/>
		<edge from-layer="92" from-port="1" to-layer="98" to-port="0"/>
		<edge from-layer="97" from-port="3" to-layer="99" to-port="0"/>
		<edge from-layer="98" from-port="1" to-layer="99" to-port="1"/>
		<edge from-layer="99" from-port="2" to-layer="100" to-port="0"/>
		<edge from-layer="100" from-port="1" to-layer="101" to-port="0"/>
		<edge from-layer="101" from-port="3" to-layer="102" to-port="0"/>
		<edge from-layer="102" from-port="1" to-layer="103" to-port="0"/>
		<edge from-layer="103" from-port="3" to-layer="104" to-port="0"/>
		<edge from-layer="104" from-port="1" to-layer="105" to-port="0"/>
		<edge from-layer="100" from-port="1" to-layer="106" to-port="0"/>
		<edge from-layer="105" from-port="3" to-layer="107" to-port="0"/>
		<edge from-layer="106" from-port="3" to-layer="107" to-port="1"/>
		<edge from-layer="107" from-port="2" to-layer="108" to-port="0"/>
		<edge from-layer="108" from-port="1" to-layer="109" to-port="0"/>
		<edge from-layer="109" from-port="3" to-layer="110" to-port="0"/>
		<edge from-layer="110" from-port="1" to-layer="111" to-port="0"/>
		<edge from-layer="111" from-port="3" to-layer="112" to-port="0"/>
		<edge from-layer="112" from-port="1" to-layer="113" to-port="0"/>
		<edge from-layer="113" from-port="3" to-layer="114" to-port="0"/>
		<edge from-layer="108" from-port="1" to-layer="114" to-port="1"/>
		<edge from-layer="114" from-port="2" to-layer="115" to-port="0"/>
		<edge from-layer="115" from-port="1" to-layer="116" to-port="0"/>
		<edge from-layer="116" from-port="3" to-layer="117" to-port="0"/>
		<edge from-layer="117" from-port="1" to-layer="118" to-port="0"/>
		<edge from-layer="118" from-port="3" to-layer="119" to-port="0"/>
		<edge from-layer="119" from-port="1" to-layer="120" to-port="0"/>
		<edge from-layer="120" from-port="3" to-layer="121" to-port="0"/>
		<edge from-layer="115" from-port="1" to-layer="121" to-port="1"/>
		<edge from-layer="121" from-port="2" to-layer="122" to-port="0"/>
		<edge from-layer="122" from-port="1" to-layer="123" to-port="0"/>
		<edge from-layer="123" from-port="1" to-layer="124" to-port="0"/>
		<edge from-layer="124" from-port="3" to-layer="125" to-port="0"/>
		<edge from-layer="125" from-port="1" to-layer="126" to-port="0"/>
		<edge from-layer="126" from-port="3" to-layer="127" to-port="0"/>
	</edges>
	<meta_data>
		<MO_version value="2019.1.1-83-g28dfbfd"/>
		<cli_parameters>
			<data_type value="float"/>
			<disable_fusing value="False"/>
			<disable_gfusing value="False"/>
			<disable_nhwc_to_nchw value="False"/>
			<disable_omitting_optional value="False"/>
			<disable_resnet_optimization value="False"/>
			<enable_concat_optimization value="False"/>
			<enable_flattening_nested_params value="False"/>
			<extensions value="DIR"/>
			<framework value="caffe"/>
			<generate_deprecated_IR_V2 value="False"/>
			<input_model value="DIR/resnet-50-128.caffemodel"/>
			<input_model_is_text value="False"/>
			<input_proto value="DIR/resnet-50-128.prototxt"/>
			<k value="DIR/CustomLayersMapping.xml"/>
			<keep_shape_ops value="False"/>
			<legacy_mxnet_model value="False"/>
			<log_level value="ERROR"/>
			<mean_scale_values value="{}"/>
			<mean_values value="()"/>
			<move_to_preprocess value="False"/>
			<output_dir value="DIR"/>
			<remove_output_softmax value="False"/>
			<reverse_input_channels value="False"/>
			<save_params_from_nd value="False"/>
			<scale_values value="()"/>
			<silent value="False"/>
			<version value="False"/>
			<unset unset_cli_parameters="batch, counts, finegrain_fusing, freeze_placeholder_with_value, input, input_checkpoint, input_meta_graph, input_shape, input_symbol, mean_file, mean_file_offsets, model_name, nd_prefix_name, output, placeholder_shapes, pretrained_model_name, saved_model_dir, saved_model_tags, scale, tensorboard_logdir, tensorflow_custom_layer_libraries, tensorflow_custom_operations_config_update, tensorflow_object_detection_api_pipeline_config, tensorflow_operation_patterns, tensorflow_subgraph_patterns, tensorflow_use_custom_operations_config"/>
		</cli_parameters>
	</meta_data>
</net>
